…
 'weight_decay': 0.0,
 'word_dims': 300,
 'word_f': 128,
 'word_index_num': 5793,
 'word_rep': 'text'}
 05-15 14:45:45 | # ------------ 0515_144535_camn_beat_4english_15_141 ----------- #
 05-15 14:45:45 | PyTorch version: 2.0.1+cu117
 05-15 14:45:45 | CUDA version: 11.7
 05-15 14:45:46 | 1 GPUs
 05-15 14:45:46 | Random Seed: 2021
 05-15 14:45:46 | Init test dataloader success
 05-15 14:45:47 | load self-pretrained checkpoints for CaMN
 05-15 14:45:57 | DataParallel(
  (module): CaMN(
    (audio_encoder): WavEncoder(
      (feat_extractor): Sequential(
        (0): BasicBlock(
          (conv1): Conv1d(1, 32, kernel_size=(15,), stride=(5,), padding=(1600,))
          (bn1): BatchNorm1d(32, eps=1e-05, momentum=0.1, affine=True, track_running_stats=True)
          (act1): LeakyReLU(negative_slope=0.01, inplace=True)
          (conv2): Conv1d(32, 32, kernel_size=(15,), stride=(1,), padding=(7,))
          (bn2): BatchNorm1d(32, eps=1e-05, momentum=0.1, affine=True, track_running_stats=True)
          (act2): LeakyReLU(negative_slope=0.01, inplace=True)
          (downsample): Sequential(
            (0): Conv1d(1, 32, kernel_size=(15,), stride=(5,), padding=(1600,))
            (1): BatchNorm1d(32, eps=1e-05, momentum=0.1, affine=True, track_running_stats=True)
          )
        )
        (1): BasicBlock(
          (conv1): Conv1d(32, 32, kernel_size=(15,), stride=(6,))
          (bn1): BatchNorm1d(32, eps=1e-05, momentum=0.1, affine=True, track_running_stats=True)
          (act1): LeakyReLU(negative_slope=0.01, inplace=True)
          (conv2): Conv1d(32, 32, kernel_size=(15,), stride=(1,), padding=(7,))
          (bn2): BatchNorm1d(32, eps=1e-05, momentum=0.1, affine=True, track_running_stats=True)
          (act2): LeakyReLU(negative_slope=0.01, inplace=True)
          (downsample): Sequential(
            (0): Conv1d(32, 32, kernel_size=(15,), stride=(6,))
            (1): BatchNorm1d(32, eps=1e-05, momentum=0.1, affine=True, track_running_stats=True)
          )
        )
        (2): BasicBlock(
          (conv1): Conv1d(32, 32, kernel_size=(15,), stride=(1,), padding=(7,))
          (bn1): BatchNorm1d(32, eps=1e-05, momentum=0.1, affine=True, track_running_stats=True)
          (act1): LeakyReLU(negative_slope=0.01, inplace=True)
          (conv2): Conv1d(32, 32, kernel_size=(15,), stride=(1,), padding=(7,))
          (bn2): BatchNorm1d(32, eps=1e-05, momentum=0.1, affine=True, track_running_stats=True)
          (act2): LeakyReLU(negative_slope=0.01, inplace=True)
        )
        (3): BasicBlock(
          (conv1): Conv1d(32, 64, kernel_size=(15,), stride=(6,))
          (bn1): BatchNorm1d(64, eps=1e-05, momentum=0.1, affine=True, track_running_stats=True)
          (act1): LeakyReLU(negative_slope=0.01, inplace=True)
          (conv2): Conv1d(64, 64, kernel_size=(15,), stride=(1,), padding=(7,))
          (bn2): BatchNorm1d(64, eps=1e-05, momentum=0.1, affine=True, track_running_stats=True)
          (act2): LeakyReLU(negative_slope=0.01, inplace=True)
          (downsample): Sequential(
            (0): Conv1d(32, 64, kernel_size=(15,), stride=(6,))
            (1): BatchNorm1d(64, eps=1e-05, momentum=0.1, affine=True, track_running_stats=True)
          )
        )
        (4): BasicBlock(
          (conv1): Conv1d(64, 64, kernel_size=(15,), stride=(1,), padding=(7,))
          (bn1): BatchNorm1d(64, eps=1e-05, momentum=0.1, affine=True, track_running_stats=True)
          (act1): LeakyReLU(negative_slope=0.01, inplace=True)
          (conv2): Conv1d(64, 64, kernel_size=(15,), stride=(1,), padding=(7,))
          (bn2): BatchNorm1d(64, eps=1e-05, momentum=0.1, affine=True, track_running_stats=True)
          (act2): LeakyReLU(negative_slope=0.01, inplace=True)
        )
        (5): BasicBlock(
          (conv1): Conv1d(64, 128, kernel_size=(15,), stride=(6,))
          (bn1): BatchNorm1d(128, eps=1e-05, momentum=0.1, affine=True, track_running_stats=True)
          (act1): LeakyReLU(negative_slope=0.01, inplace=True)
          (conv2): Conv1d(128, 128, kernel_size=(15,), stride=(1,), padding=(7,))
          (bn2): BatchNorm1d(128, eps=1e-05, momentum=0.1, affine=True, track_running_stats=True)
          (act2): LeakyReLU(negative_slope=0.01, inplace=True)
          (downsample): Sequential(
            (0): Conv1d(64, 128, kernel_size=(15,), stride=(6,))
            (1): BatchNorm1d(128, eps=1e-05, momentum=0.1, affine=True, track_running_stats=True)
          )
        )
      )
    )
    (facial_encoder): Sequential(
      (0): BasicBlock(
        (conv1): Conv1d(51, 16, kernel_size=(7,), stride=(1,), padding=(3,))
        (bn1): BatchNorm1d(16, eps=1e-05, momentum=0.1, affine=True, track_running_stats=True)
        (act1): LeakyReLU(negative_slope=0.01, inplace=True)
        (conv2): Conv1d(16, 16, kernel_size=(7,), stride=(1,), padding=(3,))
        (bn2): BatchNorm1d(16, eps=1e-05, momentum=0.1, affine=True, track_running_stats=True)
        (act2): LeakyReLU(negative_slope=0.01, inplace=True)
        (downsample): Sequential(
          (0): Conv1d(51, 16, kernel_size=(7,), stride=(1,), padding=(3,))
          (1): BatchNorm1d(16, eps=1e-05, momentum=0.1, affine=True, track_running_stats=True)
        )
      )
      (1): BasicBlock(
        (conv1): Conv1d(16, 16, kernel_size=(3,), stride=(1,), padding=(1,))
        (bn1): BatchNorm1d(16, eps=1e-05, momentum=0.1, affine=True, track_running_stats=True)
        (act1): LeakyReLU(negative_slope=0.01, inplace=True)
        (conv2): Conv1d(16, 16, kernel_size=(3,), stride=(1,), padding=(1,))
        (bn2): BatchNorm1d(16, eps=1e-05, momentum=0.1, affine=True, track_running_stats=True)
        (act2): LeakyReLU(negative_slope=0.01, inplace=True)
        (downsample): Sequential(
          (0): Conv1d(16, 16, kernel_size=(3,), stride=(1,), padding=(1,))
          (1): BatchNorm1d(16, eps=1e-05, momentum=0.1, affine=True, track_running_stats=True)
        )
      )
      (2): BasicBlock(
        (conv1): Conv1d(16, 16, kernel_size=(3,), stride=(1,), padding=(1,))
        (bn1): BatchNorm1d(16, eps=1e-05, momentum=0.1, affine=True, track_running_stats=True)
        (act1): LeakyReLU(negative_slope=0.01, inplace=True)
        (conv2): Conv1d(16, 16, kernel_size=(3,), stride=(1,), padding=(1,))
        (bn2): BatchNorm1d(16, eps=1e-05, momentum=0.1, affine=True, track_running_stats=True)
        (act2): LeakyReLU(negative_slope=0.01, inplace=True)
      )
      (3): BasicBlock(
        (conv1): Conv1d(16, 32, kernel_size=(3,), stride=(1,), padding=(1,))
        (bn1): BatchNorm1d(32, eps=1e-05, momentum=0.1, affine=True, track_running_stats=True)
        (act1): LeakyReLU(negative_slope=0.01, inplace=True)
        (conv2): Conv1d(32, 32, kernel_size=(3,), stride=(1,), padding=(1,))
        (bn2): BatchNorm1d(32, eps=1e-05, momentum=0.1, affine=True, track_running_stats=True)
        (act2): LeakyReLU(negative_slope=0.01, inplace=True)
        (downsample): Sequential(
          (0): Conv1d(16, 32, kernel_size=(3,), stride=(1,), padding=(1,))
          (1): BatchNorm1d(32, eps=1e-05, momentum=0.1, affine=True, track_running_stats=True)
        )
      )
    )
    (text_encoder): TextEncoderTCN(
      (embedding): Embedding(5793, 300)
      (tcn): TemporalConvNet(
        (network): Sequential(
          (0): TemporalBlock(
            (conv1): Conv1d(300, 256, kernel_size=(2,), stride=(1,), padding=(1,))
            (chomp1): Chomp1d()
            (relu1): ReLU()
            (dropout1): Dropout(p=0.3, inplace=False)
            (conv2): Conv1d(256, 256, kernel_size=(2,), stride=(1,), padding=(1,))
            (chomp2): Chomp1d()
            (relu2): ReLU()
            (dropout2): Dropout(p=0.3, inplace=False)
            (net): Sequential(
              (0): Conv1d(300, 256, kernel_size=(2,), stride=(1,), padding=(1,))
              (1): Chomp1d()
              (2): ReLU()
              (3): Dropout(p=0.3, inplace=False)
              (4): Conv1d(256, 256, kernel_size=(2,), stride=(1,), padding=(1,))
              (5): Chomp1d()
              (6): ReLU()
              (7): Dropout(p=0.3, inplace=False)
            )
            (downsample): Conv1d(300, 256, kernel_size=(1,), stride=(1,))
            (relu): ReLU()
          )
          (1): TemporalBlock(
            (conv1): Conv1d(256, 256, kernel_size=(2,), stride=(1,), padding=(2,), dilation=(2,))
            (chomp1): Chomp1d()
            (relu1): ReLU()
            (dropout1): Dropout(p=0.3, inplace=False)
            (conv2): Conv1d(256, 256, kernel_size=(2,), stride=(1,), padding=(2,), dilation=(2,))
            (chomp2): Chomp1d()
            (relu2): ReLU()
            (dropout2): Dropout(p=0.3, inplace=False)
            (net): Sequential(
              (0): Conv1d(256, 256, kernel_size=(2,), stride=(1,), padding=(2,), dilation=(2,))
              (1): Chomp1d()
              (2): ReLU()
              (3): Dropout(p=0.3, inplace=False)
              (4): Conv1d(256, 256, kernel_size=(2,), stride=(1,), padding=(2,), dilation=(2,))
              (5): Chomp1d()
              (6): ReLU()
              (7): Dropout(p=0.3, inplace=False)
            )
            (relu): ReLU()
          )
          (2): TemporalBlock(
            (conv1): Conv1d(256, 256, kernel_size=(2,), stride=(1,), padding=(4,), dilation=(4,))
            (chomp1): Chomp1d()
            (relu1): ReLU()
            (dropout1): Dropout(p=0.3, inplace=False)
            (conv2): Conv1d(256, 256, kernel_size=(2,), stride=(1,), padding=(4,), dilation=(4,))
            (chomp2): Chomp1d()
            (relu2): ReLU()
            (dropout2): Dropout(p=0.3, inplace=False)
            (net): Sequential(
              (0): Conv1d(256, 256, kernel_size=(2,), stride=(1,), padding=(4,), dilation=(4,))
              (1): Chomp1d()
              (2): ReLU()
              (3): Dropout(p=0.3, inplace=False)
              (4): Conv1d(256, 256, kernel_size=(2,), stride=(1,), padding=(4,), dilation=(4,))
              (5): Chomp1d()
              (6): ReLU()
              (7): Dropout(p=0.3, inplace=False)
            )
            (relu): ReLU()
          )
          (3): TemporalBlock(
            (conv1): Conv1d(256, 256, kernel_size=(2,), stride=(1,), padding=(8,), dilation=(8,))
            (chomp1): Chomp1d()
            (relu1): ReLU()
            (dropout1): Dropout(p=0.3, inplace=False)
            (conv2): Conv1d(256, 256, kernel_size=(2,), stride=(1,), padding=(8,), dilation=(8,))
            (chomp2): Chomp1d()
            (relu2): ReLU()
            (dropout2): Dropout(p=0.3, inplace=False)
            (net): Sequential(
              (0): Conv1d(256, 256, kernel_size=(2,), stride=(1,), padding=(8,), dilation=(8,))
              (1): Chomp1d()
              (2): ReLU()
              (3): Dropout(p=0.3, inplace=False)
              (4): Conv1d(256, 256, kernel_size=(2,), stride=(1,), padding=(8,), dilation=(8,))
              (5): Chomp1d()
              (6): ReLU()
              (7): Dropout(p=0.3, inplace=False)
            )
            (relu): ReLU()
          )
        )
      )
      (decoder): Linear(in_features=256, out_features=128, bias=True)
      (drop): Dropout(p=0.1, inplace=False)
    )
    (speaker_embedding): Sequential(
      (0): Embedding(30, 8)
      (1): Linear(in_features=8, out_features=8, bias=True)
      (2): LeakyReLU(negative_slope=0.1, inplace=True)
    )
    (emotion_embedding): Sequential(
      (0): Embedding(8, 8)
      (1): Linear(in_features=8, out_features=8, bias=True)
    )
    (emotion_embedding_tail): Sequential(
      (0): Conv1d(8, 8, kernel_size=(9,), stride=(1,), padding=(4,))
      (1): BatchNorm1d(8, eps=1e-05, momentum=0.1, affine=True, track_running_stats=True)
      (2): LeakyReLU(negative_slope=0.3, inplace=True)
      (3): Conv1d(8, 16, kernel_size=(9,), stride=(1,), padding=(4,))
      (4): BatchNorm1d(16, eps=1e-05, momentum=0.1, affine=True, track_running_stats=True)
      (5): LeakyReLU(negative_slope=0.3, inplace=True)
      (6): Conv1d(16, 16, kernel_size=(9,), stride=(1,), padding=(4,))
      (7): BatchNorm1d(16, eps=1e-05, momentum=0.1, affine=True, track_running_stats=True)
      (8): LeakyReLU(negative_slope=0.3, inplace=True)
      (9): Conv1d(16, 8, kernel_size=(9,), stride=(1,), padding=(4,))
      (10): BatchNorm1d(8, eps=1e-05, momentum=0.1, affine=True, track_running_stats=True)
      (11): LeakyReLU(negative_slope=0.3, inplace=True)
    )
    (LSTM): LSTM(446, 256, num_layers=4, batch_first=True, dropout=0.3, bidirectional=True)
    (out): Sequential(
      (0): Linear(in_features=256, out_features=128, bias=True)
      (1): LeakyReLU(negative_slope=0.1, inplace=True)
      (2): Linear(in_features=128, out_features=27, bias=True)
    )
    (LSTM_hands): LSTM(473, 256, num_layers=4, batch_first=True, dropout=0.3, bidirectional=True)
    (out_hands): Sequential(
      (0): Linear(in_features=256, out_features=128, bias=True)
      (1): LeakyReLU(negative_slope=0.1, inplace=True)
      (2): Linear(in_features=128, out_features=114, bias=True)
    )
    (audio_fusion): Sequential(
      (0): Linear(in_features=272, out_features=128, bias=True)
      (1): LeakyReLU(negative_slope=0.1, inplace=True)
      (2): Linear(in_features=128, out_features=128, bias=True)
      (3): LeakyReLU(negative_slope=0.1, inplace=True)
    )
    (facial_fusion): Sequential(
      (0): Linear(in_features=304, out_features=128, bias=True)
      (1): LeakyReLU(negative_slope=0.1, inplace=True)
      (2): Linear(in_features=128, out_features=32, bias=True)
      (3): LeakyReLU(negative_slope=0.1, inplace=True)
    )
  )
)
 05-15 14:45:57 | init CaMN success
 05-15 14:45:57 | load self-pretrained checkpoints for HalfEmbeddingNet
 05-15 14:45:57 | DataParallel(
  (module): HalfEmbeddingNet(
    (pose_encoder): PoseEncoderConv(
      (net): Sequential(
        (0): Sequential(
          (0): Conv1d(141, 300, kernel_size=(3,), stride=(1,))
          (1): BatchNorm1d(300, eps=1e-05, momentum=0.1, affine=True, track_running_stats=True)
          (2): LeakyReLU(negative_slope=0.2, inplace=True)
        )
        (1): Sequential(
          (0): Conv1d(300, 600, kernel_size=(3,), stride=(1,))
          (1): BatchNorm1d(600, eps=1e-05, momentum=0.1, affine=True, track_running_stats=True)
          (2): LeakyReLU(negative_slope=0.2, inplace=True)
        )
        (2): Sequential(
          (0): Conv1d(600, 600, kernel_size=(4,), stride=(2,))
          (1): BatchNorm1d(600, eps=1e-05, momentum=0.1, affine=True, track_running_stats=True)
          (2): LeakyReLU(negative_slope=0.2, inplace=True)
        )
        (3): Conv1d(600, 300, kernel_size=(3,), stride=(1,))
      )
      (out_net): Sequential(
        (0): Linear(in_features=3600, out_features=1200, bias=True)
        (1): BatchNorm1d(1200, eps=1e-05, momentum=0.1, affine=True, track_running_stats=True)
        (2): LeakyReLU(negative_slope=True)
        (3): Linear(in_features=1200, out_features=600, bias=True)
        (4): BatchNorm1d(600, eps=1e-05, momentum=0.1, affine=True, track_running_stats=True)
        (5): LeakyReLU(negative_slope=True)
        (6): Linear(in_features=600, out_features=300, bias=True)
      )
      (fc_mu): Linear(in_features=300, out_features=300, bias=True)
      (fc_logvar): Linear(in_features=300, out_features=300, bias=True)
    )
    (decoder): PoseDecoderConv(
      (pre_net): Sequential(
        (0): Linear(in_features=300, out_features=600, bias=True)
        (1): BatchNorm1d(600, eps=1e-05, momentum=0.1, affine=True, track_running_stats=True)
        (2): LeakyReLU(negative_slope=True)
        (3): Linear(in_features=600, out_features=1258, bias=True)
      )
      (net): Sequential(
        (0): ConvTranspose1d(37, 300, kernel_size=(3,), stride=(1,))
        (1): BatchNorm1d(300, eps=1e-05, momentum=0.1, affine=True, track_running_stats=True)
        (2): LeakyReLU(negative_slope=0.2, inplace=True)
        (3): ConvTranspose1d(300, 300, kernel_size=(3,), stride=(1,))
        (4): BatchNorm1d(300, eps=1e-05, momentum=0.1, affine=True, track_running_stats=True)
        (5): LeakyReLU(negative_slope=0.2, inplace=True)
        (6): Conv1d(300, 600, kernel_size=(3,), stride=(1,))
        (7): Conv1d(600, 141, kernel_size=(3,), stride=(1,))
      )
    )
  )
)
 05-15 14:45:57 | init HalfEmbeddingNet success
 05-15 14:45:57 | Testing from ckpt ...
 05-15 14:46:00 | An error has been caught in function '<module>', process 'MainProcess' (22900), thread 'MainThread' (39672):
Traceback (most recent call last):

> File "S:\audio2pose\codes\audio2pose\test.py", line 248, in <module>
    main_worker(0, 1, args)
…
